Epoch 0:
GeneralModel(
  (memory_updater): GRUMemeoryUpdater(
    (updater): GRUCell(472, 100)
    (time_enc): TimeEncode(
      (w): Linear(in_features=1, out_features=100, bias=True)
    )
  )
  (layers): ModuleDict(
    (l0h0): TransfomerAttentionLayer(
      (dropout): Dropout(p=0.2, inplace=False)
      (att_dropout): Dropout(p=0.2, inplace=False)
      (att_act): LeakyReLU(negative_slope=0.2)
      (time_enc): TimeEncode(
        (w): Linear(in_features=1, out_features=100, bias=True)
      )
      (w_q): Linear(in_features=200, out_features=100, bias=True)
      (w_k): Linear(in_features=372, out_features=100, bias=True)
      (w_v): Linear(in_features=372, out_features=100, bias=True)
      (w_out): Linear(in_features=200, out_features=100, bias=True)
      (layer_norm): LayerNorm((100,), eps=1e-05, elementwise_affine=True)
    )
  )
  (edge_predictor): EdgePredictor(
    (src_fc): Linear(in_features=100, out_features=100, bias=True)
    (dst_fc): Linear(in_features=100, out_features=100, bias=True)
    (out_fc): Linear(in_features=100, out_features=1, bias=True)
  )
)
[Block(num_src_nodes=12021, num_dst_nodes=1800, num_edges=10221)]
    Edge Features ('h') shape: torch.Size([10221, 172])
[Block(num_src_nodes=11085, num_dst_nodes=1800, num_edges=9285)]
    Edge Features ('h') shape: torch.Size([9285, 172])
[Block(num_src_nodes=10299, num_dst_nodes=1800, num_edges=8499)]
    Edge Features ('h') shape: torch.Size([8499, 172])
…
